…
ls.py├── representations│ ├── gaussian│ │ ├── gaussian_model.py│ │ └── ...│ ├── __init__.py│ ├── mesh│ │ ├── cube2mesh.py│ │ └── ...│ ├── octree│ │ └── octree_dfs.py│ └── radiance_field│ └── strivec.py└── utils ├── general_utils.py ├── ... └── render_utils.py models里是网络结构，modules里是构造网络需要的各种模块，其中sparse是相关网络或模块的稀疏变体（后面要用到的妙妙工具）。pipielines实现了一个按diffuser库风格写的一个用于推理的类，renderers和representations分别用来渲染不同3D表示以及构造不同3D表示。 Sparse Structure​ 我们先从简单的地方入手，先来考虑如何生成占用网格来表示几何。 Sparse Structure VAE​ 考虑$\\mathcal{E}_\\mathrm{S}$和$\\mathcal{D}_{\\mathrm{S}}$。这两者是在Latent Diffusion Model里常用的VAE的直接推广： …( (input_layer): Conv3d(1, 32, kernel_size=(3, 3, 3), stride=(1, 1, 1), padding=(1, 1, 1)) (blocks): ModuleList( (0-1): 2 x ResBlock3d( (norm1): ChannelLayerNorm32((32,), eps=1e-05, elementwise_affine=True) (norm2): ChannelLayerNorm32((32,), eps=1e-05, elementwise_affine=True) (conv1): Conv3d(32, 32, kernel_size=(3, 3, 3), stride=(1, 1, 1), padding=(1, 1, 1)) (conv2): Conv3d(32, 32, kernel_size=(3, 3, 3), stride=(1, 1, 1), padding=(1, 1, 1)) (skip_connection): Identity() ) (2): DownsampleBlock3d( (conv): Conv3d(32, 128, kernel_size=(2, 2, 2), stride=(2, 2, 2)) ) (3-4): 2 x ResBlock3d( (norm1): ChannelLayerNorm32((128,), eps=1e-05, elementwise_affine=True) (norm2): ChannelLayerNorm32((128,), eps=1e-05, elementwise_affine=True) (conv1): Conv3d(128, 128, kernel_size=(3, 3, 3), stride=(1, 1, 1), padding=(1, 1, 1)) (conv2): Conv3d(128, 128, kernel_size=(3, 3, 3), stride=(1, 1, 1), padding=(1, 1, 1)) (skip_connection): Identity() ) (5): DownsampleBlock3d( (conv): Conv3d(128, 512, kernel_size=(2, 2, 2), stride=(2, 2, 2)) ) (6-7): 2 x ResBlock3d( (norm1): ChannelLayerNorm32((512,), eps=1e-05, elementwise_affine=True) (norm2): ChannelLayerNorm32((512,), eps=1e-05, elementwise_affine=True) (conv1): Conv3d(512, 512, kernel_size=(3, 3, 3), stride=(1, 1, 1), padding=(1, 1, 1)) (conv2): Conv3d(512, 512, kernel_size=(3, 3, 3), stride=(1, 1, 1), padding=(1, 1, 1)) (skip_connection): Identity() ) ) (middle_block): Sequential( (0): ResBlock3d( (norm1): ChannelLayerNorm32((512,), eps=1e-05, elementwise_affine=True) (norm2): ChannelLayerNorm32((512,), eps=1e-05, elementwise_affine=True) (conv1): Conv3d(512, 512, kernel_size=(3, 3, 3), stride=(1, 1, 1), padding=(1, 1, 1)) (conv2): Conv3d(512, 512, kernel_size=(3, 3, 3), stride=(1, 1, 1), padding=(1, 1, 1)) (skip_connection): Identity() ) (1): ResBlock3d( (norm1): ChannelLayerNorm32((512,), eps=1e-05, elementwise_affine=True) (norm2): ChannelLayerNorm32((512,), eps=1e-05, elementwise_affine=True) (conv1): Conv3d(512, 512, kernel_size=(3, 3, 3), stride=(1, 1, 1), padding=(1, 1, 1)) (conv2): Conv3d(512, 512, kernel_size=(3, 3, 3), stride=(1, 1, 1), padding=(1, 1, 1)) (skip_connection): Identity() ) ) (out_layer): Sequential( (0): ChannelLayerNorm32((512,), eps=1e-05, elementwise_affine=True) (1): SiLU() (2): Conv3d(512, 16, kernel_size=(3, 3, 3), stride=(1, 1, 1), padding=(1, 1, 1)) ))-------------------------------------------------------------------------SparseStructureDecoder( (input_layer): Conv3d(8, 512, kernel_size=(3, 3, 3), stride=(1, 1, 1), padding=(1, 1, 1)) (middle_block): Sequential( (0): ResBlock3d( (norm1): ChannelLayerNorm32((512,), eps=1e-05, elementwise_affine=True) (norm2): ChannelLayerNorm32((512,), eps=1e-05, elementwise_affine=True) (conv1): Conv3d(512, 512, kernel_size=(3, 3, 3), stride=(1, 1, 1), padding=(1, 1, 1)) (conv2): Conv3d(512, 512, kernel_size=(3, 3, 3), stride=(1, 1, 1), padding=(1, 1, 1)) (skip_connection): Identity() ) (1): ResBlock3d( (norm1): ChannelLayerNorm32((512,), eps=1e-05, elementwise_affine=True) (norm2): ChannelLayerNorm32((512,), eps=1e-05, elementwise_affine=True) (conv1): Conv3d(512, 512, kernel_size=(3, 3, 3), stride=(1, 1, 1), padding=(1, 1, 1)) (conv2): Conv3d(512, 512, kernel_size=(3, 3, 3), stride=(1, 1, 1), padding=(1, 1, 1)) (skip_connection): Identity() ) ) (blocks): ModuleList( (0-1): 2 x ResBlock3d( (norm1): ChannelLayerNorm32((512,), eps=1e-05, elementwise_affine=True) (norm2): ChannelLayerNorm32((512,), eps=1e-05, elementwise_affine=True) (conv1): Conv3d(512, 512, kernel_size=(3, 3, 3), stride=(1, 1, 1), padding=(1, 1, 1)) (conv2): Conv3d(512, 512, kernel_size=(3, 3, 3), stride=(1, 1, 1), padding=(1, 1, 1)) (skip_connection): Identity() ) (2): UpsampleBlock3d( (conv): Conv3d(512, 1024, kernel_size=(3, 3, 3), stride=(1, 1, 1), padding=(1, 1, 1)) ) (3-4): 2 x ResBlock3d( (norm1): ChannelLayerNorm32((128,), eps=1e-05, elementwise_affine=True) (norm2): ChannelLayerNorm32((128,), eps=1e-05, elementwise_affine=True) (conv1): Conv3d(128, 128, kernel_size=(3, 3, 3), stride=(1, 1, 1), padding=(1, 1, 1)) (conv2): Conv3d(128, 128, kernel_size=(3, 3, 3), stride=(1, 1, 1), padding=(1, 1, 1)) (skip_connection): Identity() ) (5): UpsampleBlock3d( (conv): Conv3d(128, 256, kernel_size=(3, 3, 3), stride=(1, 1, 1), padding=(1, 1, 1)) ) (6-7): 2 x ResBlock3d( (norm1): ChannelLayerNorm32((32,), eps=1e-05, elementwise_affine=True) (norm2): ChannelLayerNorm32((32,), eps=1e-05, elementwise_affine=True) (conv1): Conv3d(32, 32, kernel_size=(3, 3, 3), stride=(1, 1, 1), padding=(1, 1, 1)) (conv2): Conv3d(32, 32, kernel_size=(3, 3, 3), stride=(1, 1, 1), padding=(1, 1, 1)) (skip_connection): Identity() ) ) (out_layer): Sequential( (0): ChannelLayerNorm32((32,), eps=1e-05, elementwise_affine=True) (1): SiLU() (2): Conv3d(32, 1, kernel_size=(3, 3, 3), stride=(1, 1, 1), padding=(1, 1, 1)) )) 其工作流很好理解，主体是将2D卷积变成了3D卷积来处理体素。其中的一个频繁使用的类是ResBlock3d，这个类相比于图像里常用的，有着一些有趣的修改： 1234567891011121314151617181920212223242526class ResBlock3d(nn.Module): def __init__( self, channels: int, out_channels: Optional[int] = None, norm_type: Literal[&quot;group&quot;, &quot;layer&quot;] = &quot;layer&quot;, ): super().__init__() self.chann
…
 D) x = x.permute(0, 1, 5, 2, 6, 3, 7, 4) x = x.reshape(B, C_, H*scale_factor, W*scale_factor, D*scale_factor) return x PixelShuffle是一个很酷的想法，其示意图完全值得一个精良的动画。这里可以借pyvista绘制一下，如图所示： Sparse Structure Flow然后我们关注一下生成部分$\\mathcal{G}_{\\mathrm{S}}$的实现，其主体是一个DiT，但其实也并没有完全沿用DiT里的设计。其训练了一个Rectified Flow，个人觉得训一个DDPM还是Flow Matching在这里区别不大，只不过Rectified Flow在实现起来确实简洁清爽。DiT是一个将Transformer适配进Diffusion的一个设计，生成Sparse Structure的SparseStructureFlowModel基本是DiT的朴素推广： 12345678910111213141516171819202122232425262728293031323334353637383940SparseStructureFlowModel( (t_embedder): TimestepEmbedder( (mlp): Sequential( (0): Linear(in_features=256, out_features=1024, bias=True) (1): SiLU() (2): Linear(in_features=1024, out_features=1024, bias=True) ) ) (input_layer): Linear(in_features=8, out_features=1024, bias=True) (blocks): ModuleList( (0-23): 24 x ModulatedTransformerCrossBlock( (norm1): LayerNorm32((1024,), eps=1e-06, elementwise_affine=False) (norm2): LayerNorm32((1024,), eps=1e-06, elementwise_affine=True) (norm3): LayerNorm32((1024,), eps=1e-06, elementwise_affine=False) (self_attn): MultiHeadAttention( (to_qkv): Linear(in_features=1024, out_features=3072, bias=True) (q_rms_norm): MultiHeadRMSNorm() (k_rms_norm): MultiHeadRMSNorm() (to_out): Linear(in_features=1024, out_features=1024, bias=True) ) (cross_attn): MultiHeadAttention( (to_q): Linear(in_features=1024, out_features=1024, bias=True) (to_kv): Linear(in_features=1024, out_features=2048, bias=True) (to_out): Linear(in_features=1024, out_features=1024, bias=True) ) (mlp): FeedForwardNet( (mlp): Sequential( (0): Linear(in_features=1024, out_features=4096, bias=True) (1): GELU(approximate=&#x27;tanh&#x27;) (2): Linear(in_features=4096, out_features=1024, bias=True) ) ) (adaLN_modulation): Sequential( (0): SiLU() (1): Linear(in_features=1024, out_features=6144, bias=True) ) ) ) (out_layer): Linear(in_features=1024, out_features=8, bias=True)) 由于后面的SLatFlowModel主体也是一个DiT，但那时候我们需要关注一些其他部分。所以在这里我们在介绍SparseStructureFlowModel的同时，也介绍DiT作为铺垫。 在最初的扩散模型中，一个基于CNN的U-Net，混有attention算子的，具有长程跳连的网络被认为是最佳实践。DiT的一个特点就是整个架构纯由attention实现，没有卷积算子参与其中，这使得整个网络可以简单地叠加许多block，而不需要像CNN一样调整通道数等操作。从一些意义上讲适合”scaling up“。 ​ DiT沿用了许多ViT的设计，先将二维图像通过patchify打成一维序列，这里patch的大小一般是2，4，8。例如对DiT文中所述的32×32×4的latents，取patch大小为2，就会
…
 q_seqlenqkv = qkv.feats # [T, 3, H, C] 我们先利用layout将不同batch对应的序列索引拿出来，然后在先进的attention实现里（例如xformers）： 123456789if num_all_args == 1: q, k, v = qkv.unbind(dim=1)elif num_all_args == 2: k, v = kv.unbind(dim=1)q = q.unsqueeze(0)k = k.unsqueeze(0)v = v.unsqueeze(0)mask = xops.fmha.BlockDiagonalMask.from_seqlens(q_seqlen, kv_seqlen)out = xops.memory_efficient_attention(q, k, v, mask)[0] 这样会用如下图所示的一个mask： 这样就能让不同batch之间互不影响，然后batchify的进行训练。在最后，也会有一个self.out_layer来将特征映射到8维，从而完成压缩。 Structured Latent Flow​ $\\mathcal{G}_{\\mathrm{L}}$的实现主体仍然是DiT： …( (t_embedder): TimestepEmbedder( (mlp): Sequential( (0): Linear(in_features=256, out_features=1024, bias=True) (1): SiLU() (2): Linear(in_features=1024, out_features=1024, bias=True) ) ) (pos_embedder): AbsolutePositionEmbedder() (input_layer): SparseLinear(in_features=8, out_features=128, bias=True) (input_blocks): ModuleList( (0): SparseResBlock3d( (norm1): LayerNorm32((128,), eps=1e-06, elementwise_affine=True) (norm2): LayerNorm32((128,), eps=1e-06, elementwise_affine=False) (conv1): SparseConv3d( (conv): SubMConv3d(128, 128, kernel_size=[3, 3, 3], stride=[1, 1, 1], padding=[0, 0, 0], dilation=[1, 1, 1], output_padding=[0, 0, 0], algo=ConvAlgo.MaskImplicitGemm) ) (conv2): SparseConv3d( (conv): SubMConv3d(128, 128, kernel_size=[3, 3, 3], stride=[1, 1, 1], padding=[0, 0, 0], dilation=[1, 1, 1], output_padding=[0, 0, 0], algo=ConvAlgo.MaskImplicitGemm) ) (emb_layers): Sequential( (0): SiLU() (1): Linear(in_features=1024, out_features=256, bias=True) ) (skip_connection): Identity() ) (1): SparseResBlock3d( (norm1): LayerNorm32((128,), eps=1e-06, elementwise_affine=True) (norm2): LayerNorm32((1024,), eps=1e-06, elementwise_affine=False) (conv1): SparseConv3d( (conv): SubMConv3d(128, 1024, kernel_size=[3, 3, 3], stride=[1, 1, 1], padding=[0, 0, 0], dilation=[1, 1, 1], output_padding=[0, 0, 0], algo=ConvAlgo.MaskImplicitGemm) ) (conv2): SparseConv3d( (conv): SubMConv3d(1024, 1024, kernel_size=[3, 3, 3], stride=[1, 1, 1], padding=[0, 0, 0], dilation=[1, 1, 1], output_padding=[0, 0, 0], algo=ConvAlgo.MaskImplicitGemm) ) (emb_layers): Sequential( (0): SiLU() (1): Linear(in_features=1024, out_features=2048, bias=True) ) (skip_connection): SparseLinear(in_features=128, out_features=1024, bias=True) (updown): SparseDownsample() ) ) (blocks): ModuleList( (0-23): 24 x ModulatedSparseTransformerCrossBlock( (norm1): LayerNorm32((1024,), eps=1e-06, elementwise_affine=False) (norm2): LayerNorm32((1024,), eps=1e-06, elementwise_affine=True) (norm3): LayerNorm32((1024,), eps=1e-06, elementwise_affine=False) (self_attn): SparseMultiHeadAttention( (to_qkv): Linear(in_features=1024, out_features=3072, bias=True) (q_rms_norm): SparseMultiHeadRMSNorm() (k_rms_norm): SparseMultiHeadRMSNorm() (to_out): Linear(in_features=1024, out_features=1024, bias=True) ) (cross_attn): SparseMultiHeadAttention( (to_q): Linear(in_features=1024, out_features=1024, bias=True) (to_kv): Linear(in_features=1024, out_features=2048, bias=True) (to_out): Linear(in_features=1024, out_features=1024, bias=True) ) (mlp): SparseFeedForwardNet( (mlp): Sequential( (0): SparseLinear(in_features=1024, out_features=4096, bias=True) (1): SparseGELU(approximate=&#x27;tanh&#x27;) (2): SparseLinear(in_features=4096, out_features=1024, bias=True) ) ) (adaLN_modulation): Sequential( (0): SiLU() (1): Linear(in_features=1024, out_features=6144, bias=True) ) ) ) (out_blocks): ModuleList( (0): SparseResBlock3d( (norm1): LayerNorm32((2048,), eps=1e-06, elementwise_affine=True) (norm2): LayerNorm32((128,), eps=1e-06, elementwise_affine=False) (conv1): SparseConv3d( (conv): SubMConv3d(2048, 128, kernel_size=[3, 3, 3], stride=[1, 1, 1], padding=[0, 0, 0], dilation=[1, 1, 1], output_padding=[0, 0, 0], algo=ConvAlgo.MaskImplicitGemm) ) (conv2): SparseConv3d( (conv): SubMConv3d(128, 128, kernel_size=[3, 3, 3], stride=[1, 1, 1], padding=[0, 0, 0], dilation=[1, 1, 1], output_padding=[0, 0, 0], algo=ConvAlgo.MaskImplicitGemm) ) (emb_layers): Sequential( (0): SiLU() (1): Linear(in_features=1024, out_features=256, bias=True) ) (skip_connection): SparseLinear(in_features=2048, out_features=128, bias=True) (updown): SparseUpsample() ) (1): SparseResBlock3d( (norm1): LayerNorm32((256,), eps=1e-06, elementwise_affine=True) (norm2): LayerNorm32((128,), eps=1e-06, elementwise_affine=False) (conv1): SparseConv3d( (conv): SubMConv3d(256, 128, kernel_size=[3, 3, 3], stride=[1, 1, 1], padding=[0, 0, 0], dilation=[1, 1, 1], output_padding=[0, 0, 0], algo=ConvAlgo.MaskImplicitGemm) ) (conv2): SparseConv3d( (conv): SubMConv3d(128, 128, kernel_size=[3, 3, 3], stride=[1, 1, 1], padding=[0, 0, 0], dilation=[1, 1, 1], output_padding=[0, 0, 0], algo=ConvAlgo.MaskImplicitGemm) ) (emb_layers): Sequential( (0): SiLU() (1): Linear(in_features=1024, out_features=256, bias=True) ) (skip_connection): SparseLinear(in_features=256, out_features=128, bias=True) ) ) (out_layer): SparseLinear(in_features=128, out_features=8, bias=True)) 但由于体素的数量确实比较多，直接做注意力有点吃不住。所以在SLatFlowModel的实现里，使用稀疏卷积进一步做了下采样。当计算完注意力以后再由稀疏卷积上采样回来： 123456789101112131415161718192021222324252627282930313233343536for chs, next_chs in zip(io_block_channels, io_bloc
…
